spiq/weights/lpips_SqueezeNet.pth (torch_old, 10062 bytes, 7 tensors)

0.weight f4 [1, 64, 1, 1]
0.20470907 0.0 6.8842974e-06 5.782677e-07 5.2485293e-06 3.751012e-05 0.0 0.5328037
1.7316717e-05 1.475632e-05 0.0 0.75503355 0.6598022 1.3507095e-05 7.840396e-06 1.8618766e-05
0.33077228 0.0 0.0 3.5128257e-06 1.4026081e-05 1.1105659e-05 1.8665962e-05 0.0
0.18080577 2.1062835e-05 0.11759044 2.2171102e-05 2.9710093e-06 2.0340836e-05 2.6936379e-05 0.0
5.465205e-06 0.0 2.028594e-06 0.0006392789 0.0 0.0 6.612247e-06 0.21913695
6.244038e-06 9.16622e-06 0.8797334 6.048102e-05 0.013619777 2.4278024e-05 0.20097615 1.365338e-05
0.0 2.6395e-05 7.558769e-05 1.3824891e-05 0.32275066 0.0 0.00020402262 5.8351216e-05
0.0 0.30329087 1.0248373e-05 0.39375612 8.810888e-06 3.1616615e-05 0.4475327 0.126328
00000000: 419f 513e 0000 0000 aaff e636 413a 1b35
00000010: 861c b036 2f54 1d38 0000 0000 d365 083f
00000020: 5e43 9137 e991 7737 0000 0000 e149 413f
00000030: cce8 283f 889c 6237 3f8a 0337 7f2f 9c37
00000040: fc5a a93e 0000 0000 0000 0000 e3bd 6b36
00000050: 8f51 6b37 7152 3a37 d994 9c37 0000 0000
00000060: 2625 393e 18b0 b037 42d3 f03d 14fc b937
00000070: 8d61 4736 9da1 aa37 6ff5 e137 0000 0000
00000080: c161 b736 0000 0000 fb22 0836 4895 273a
00000090: 0000 0000 0000 0000 c5de dd36 7065 603e
000000a0: e183 d136 9dc8 1937 3536 613f 00ad 7d38
000000b0: 7c25 5f3c a9a8 cb37 b1cc 4d3e d210 6537
000000c0: 0000 0000 d56a dd37 d584 9e38 74f1 6737
000000d0: 933f a53e 0000 0000 e8ee 5539 24be 7438
000000e0: 0000 0000 f148 9b3e 6df0 2b37 679a c93e
000000f0: 7ad2 1337 159c 0438 0223 e53e 215c 013e

1.weight f4 [1, 128, 1, 1]
2.3874138e-05 7.05786e-05 8.042685e-06 0.0 6.169918e-05 4.486715e-05 1.929534e-06 0.22196229
0.0 4.2248532e-05 0.2587711 6.842584e-05 4.9491546e-06 1.1692615e-05 1.2441495e-05 4.04348e-05
0.053231493 1.5803646e-05 8.5640815e-05 9.998944e-07 2.5328834e-05 0.13148834 0.119735435 0.000107141095
4.7219684e-05 5.9595757e-05 1.9212457e-05 3.1187745e-05 0.00014263375 2.5421543e-05 4.0024857e-05 0.030052202
6.9394932e-06 5.434211e-05 2.9075003e-05 5.7021116e-06 0.16110528 3.256218e-05 0.00072188803 4.9958846e-05
6.374743e-05 0.0 6.194541e-05 9.3891995e-06 0.10762493 3.4299537e-05 0.0 6.066197e-05
1.5384136e-05 3.7417798e-05 0.0 1.39981785e-05 2.019549e-05 7.703497e-05 9.525661e-05 9.594685e-06
0.05672238 1.7993356e-05 0.040644605 1.1576709e-05 0.0 1.8232164e-05 3.4403405e-05 3.0887084e-05
5.528019e-05 1.175451e-05 0.0 0.0 1.592912e-05 3.933324e-06 0.0 0.0
1.5615551e-05 3.6746293e-05 0.0 3.8380153e-05 1.4608319e-05 2.272865e-06 0.0 5.487591e-05
4.299913e-05 0.0 0.0 3.952775e-05 1.6466525e-05 1.5576145e-05 1.6484059e-05 3.2716114e-05
0.00010823876 0.0 0.0 1.3238429e-06 0.0 3.227922e-05 4.446929e-05 4.997372e-05
0.0001072651 4.6779838e-05 0.0 1.6738704e-05 4.1381692e-05 0.0 8.067905e-06 0.0
2.593819e-05 6.016824e-05 4.1423318e-05 5.2397045e-05 1.8797828e-05 2.0069205e-05 1.1081289e-05 1.7168692e-05
2.6829282e-05 5.4464504e-06 5.709689e-05 4.614554e-05 6.340218e-06 0.0 0.0 0.0
0.0 0.0 2.7429618e-05 0.0 8.2981314e-05 1.2096752e-05 0.0 5.6480163e-05
00000000: 5245 c837 9903 9438 12ef 0637 0000 0000
00000010: 7f64 8138 bc2f 3c38 247d 0136 154a 633e
00000020: 0000 0000 0434 3138 a57d 843e d87f 8f38
00000030: ea10 a636 662b 4437 d0bb 5037 8998 2938
00000040: 4409 5a3d 1292 8437 109a b338 1c34 8635
00000050: 4279 d437 e1a4 063e da37 f53d f0b0 e038
00000060: c00d 4638 75f6 7938 702a a137 96cf 0238
00000070: f58f 1539 5940 d537 5de0 2738 0930 f63c
00000080: cbd9 e836 65ed 6338 18e6 f337 c454 bf36
00000090: c8f8 243e 6093 0838 163d 3d3a e78a 5138
000000a0: 24b0 8538 0000 0000 b0e8 8138 4e86 1d37
000000b0: 766a dc3d d9dc 0f38 0000 0000 4b6f 7e38
000000c0: 2e0d 8137 0ef1 1c38 0000 0000 b8d9 6a37
000000d0: 7c69 a937 d68d a138 81c4 c738 dcf8 2037
000000e0: ba55 683d 70f0 9637 f57a 263d 9639 4237
000000f0: 0000 0000 46f1 9837 604c 1038 c18c 0138
00000100: a7dc 6738 3c35 4537 0000 0000 0000 0000
00000110: 869f 8537 fffa 8336 0000 0000 0000 0000
00000120: 24fe 8237 0820 1a38 0000 0000 60fa 2038
00000130: 4116 7537 8687 1836 0000 0000 8f2a 6638
00000140: f759 3438 0000 0000 0000 0000 99ca 2538
00000150: 9821 8a37 84a9 8237 3f47 8a37 a938 0938
00000160: 3efe e238 0000 0000 0000 0000 e5ae b135
00000170: 0000 0000 8c63 0738 8984 3a38 e09a 5138
00000180: 83f3 e038 7835 4438 0000 0000 186a 8c37
00000190: 4191 2d38 0000 0000 635b 0737 0000 0000
000001a0: d795 d937 285d 7c38 f3bd 2d38 e6c4 5b38
000001b0: 07b0 9d37 4a5a a837 c6e9 3937 7c05 9037
000001c0: 720f e137 a7c0 b636 527b 6f38 658c 4138
000001d0: 0fbe d436 0000 0000 0000 0000 0000 0000
000001e0: 0000 0000 0000 0000 a818 e637 0000 0000
000001f0: 4106 ae38 27f3 4a37 0000 0000 1de5 6c38

2.weight f4 [1, 256, 1, 1]
0.09925345 0.09517466 0.63709134 0.00013802525 0.0036303245 0.00010468134 0.070658 0.00013434041
0.00010087031 0.00015865786 0.00012972513 0.0 2.7682194e-05 5.3935357e-05 0.0005334225 0.00018429836
8.108267e-05 0.0 0.21575092 2.9634582e-05 0.00924594 5.4206183e-05 0.0 8.8748224e-05
0.11018535 3.2046242e-05 0.55576545 0.3889458 7.745464e-05 0.00013724873 0.00018521992 0.00014996046
0.0 0.1547414 0.10537248 7.6654855e-05 3.9547263e-05 0.000110467685 0.00011865094 0.009209692
4.6078378e-05 0.3424114 0.00016329995 0.00010911073 6.9345e-05 0.020556452 0.023930265 0.7585081
0.042458944 0.14457022 8.847218e-05 0.00015470984 0.00045041204 0.29817018 0.33766133 5.268842e-05
7.147493e-05 2.158607e-05 0.00010263738 8.7284665e-05 0.0 0.00012447439 4.940265e-05 1.1609416e-05
0.28970644 5.9582177e-05 0.00012749327 7.66064e-05 0.15868065 1.6097762e-05 7.689612e-05 0.00014271542
9.839311e-05 0.00456604 0.01692667 5.3906548e-05 0.066959925 9.997889e-05 0.000104815364 3.780146e-05
0.04108553 9.0855116e-05 0.14050974 3.740049e-05 6.258321e-05 6.96879e-05 0.00022462381 0.67438227
4.538852e-05 0.0004295903 9.785907e-05 0.0 7.900706e-05 0.0003239619 0.3831755 0.29479212
5.447702e-05 5.487236e-05 8.211954e-05 0.0002492429 0.0 0.37104562 7.019005e-05 0.78361017
7.897244e-05 5.7606725e-05 0.8768966 4.3156335e-05 5.662168e-05 5.012484e-05 6.921488e-05 0.07278252
0.05338983 0.47640118 0.18772599 0.0 0.05043325 6.591052e-05 0.046851713 6.0837538e-05
1.1751504e-05 0.00015174829 3.179783e-05 0.17805268 0.0 1.0074207 0.5159214 0.00016430205
0.0 0.67078054 0.0003359595 0.00019164043 0.000262517 8.259837e-05 0.00013212708 8.28426e-06
4.6038964e-05 4.9628154e-05 0.00013939134 1.8356137e-05 0.000807779 1.3704258e-05 0.2133322 0.00069528114
7.596079e-05 0.000103131315 2.5578276e-05 0.00018765287 0.0001144948 2.3901552e-05 5.8965954e-05 1.3601629e-05
3.905365e-05 1.3356934e-05 8.605652e-05 1.4961664e-05 3.9803246e-05 8.489233e-05 0.119283505 0.00012313743
0.03737917 1.8935401e-05 0.00010924329 0.28545052 0.00010561469 1.2651002 5.1062216e-05 0.00017989089
2.5686895e-05 2.1896814e-05 5.5923203e-05 0.000116555 7.307649e-06 0.00010193795 0.00027726564 1.7411363e-05
1.9347292e-05 7.9457546e-05 3.1554366e-05 0.00028344296 0.0 4.2512506e-06 5.996895e-05 0.00030285888
0.00014387467 0.0 7.579385e-05 0.0 0.37386763 0.00011610494 5.896918e-06 3.1928874e-05
2.453671e-05 4.3509364e-05 0.19880721 0.00014383768 9.6819815e-05 3.992976e-05 7.2403236e-05 6.6551074e-05
0.00023686918 6.098955e-06 1.976328e-05 0.00057106046 1.3659322e-05 1.5280266e-05 0.015701657 0.00011866436
1.1948825e-05 4.3511034e-05 0.0 5.9280457e-05 9.5666575e-05 4.4685134e-05 0.00032115405 6.248453e-05
3.873852e-05 0.0 2.171633e-05 8.909208e-05 0.0 0.12877423 0.0 3.5971916e-05
0.32629254 7.466949e-05 4.153869e-06 3.0502286e-05 1.547048e-05 0.97082174 4.939213e-05 3.9761097e-05
7.587357e-05 0.000117815245 0.5157117 4.2413325e-05 2.1723172e-05 0.0 7.6675e-05 8.343576e-06
6.188322e-05 1.12453035e-05 9.495105e-06 8.746216e-05 9.811469e-05 0.00018779452 5.5770575e-05 6.137427e-05
5.4294018e-05 0.07275857 7.565555e-05 6.976118e-05 6.172109e-05 1.8547395e-05 8.6312444e-05 1.7902034e-05
00000000: 6545 cb3d efea c23d 6b18 233f dfba 1039
00000010: bdea 6d3b 5e88 db38 24b5 903d bbdd 0c39
00000020: 568a d338 655d 2639 d306 0839 0000 0000
00000030: 0f37 e837 a638 6238 61d5 0b3a 3740 4139
00000040: ed0a aa38 0000 0000 cfed 5c3e c897 f837
00000050: 487c 173c 725b 6338 0000 0000 571e ba38
00000060: dba8 e13d 6469 0638 a546 0e3f e723 c73e
00000070: 256f a238 6dea 0f39 9837 4239 b43e 1d39
00000080: 0000 0000 8874 1e3e 87cd d73d c3c1 a038
00000090: 8ddf 2538 e3aa e738 3dd4 f838 3fe4 163c
000000a0: 4844 4138 8c50 af3e 7f3b 2b39 61d2 e438
000000b0: 506d 9138 0166 a83c 6709 c43c 962d 423f
000000c0: 6ee9 2d3d 370a 143e 248a b938 9b39 2239
000000d0: 4825 ec39 c3a9 983e f2e1 ac3e c3fd 5c38
000000e0: d0e4 9538 bb13 b537 063f d738 990c b738
000000f0: 0000 0000 5785 0239 b135 4f38 10c6 4237
00000100: 6754 943e e0e7 7938 b7af 0539 bfa7 a038
00000110: 2e7d 223e ae09 8737 4a43 a138 e1a5 1539
00000120: 6658 ce38 b89e 953b cda9 8a3c b719 6238
00000130: 4922 893d c2ab d138 52d0 db38 028d 1e38
00000140: 4d49 283d 7889 be38 c9e1 0f3e 78de 1c38
00000150: 1b3f 8338 6825 9238 ff88 6b39 51a4 2c3f
00000160: 8d5f 3e38 a23a e139 b039 cd38 0000 0000
00000170: 98b0 a538 6ed9 a939 942f c43e feee 963e
00000180: 417e 6438 bf26 6638 9837 ac38 d1ac 8239
00000190: 0000 0000 b1f9 bd3e ff32 9338 ad9a 483f
000001a0: 029e a538 c09e 7138 4c7c 603f c302 3538
000001b0: 117d 6d38 233d 5238 7527 9138 000f 953d
000001c0: 4baf 5a3d dbea f33e 3e3b 403e 0000 0000
000001d0: 1893 4e3d 7139 8a38 95e7 3f3d cf2b 7f38
000001e0: 5328 4537 9f1e 1f39 a95e 0538 7153 363e
000001f0: 0000 0000 29f3 803f 6d13 043f 7f48 2c39
00000200: 0000 0000 46b8 2b3f b923 b039 16f3 4839
00000210: 6fa2 8939 aa38 ad38 988b 0a39 a0fc 0a37
00000220: f619 4138 d327 5038 9429 1239 81fb 9937
00000230: 22c1 533a 57eb 6537 c273 5a3e 8743 363a
00000240: 234d 9f38 3448 d838 ee90 d637 afc4 4439
00000250: ed1c f038 3180 c837 3652 7738 8d32 6437
00000260: 8acd 2338 9817 6037 3e79 b438 dc03 7b37
00000270: 69f2 2638 3908 b238 e94a f43d 741e 0139
00000280: e71a 193d 77d7 9e37 8b19 e538 9226 923e
00000290: 747d dd38 ceee a13f a32b 5638 18a1 3c39
000002a0: 307a d737 0daf b737 158f 6a38 fd6e f438
000002b0: 3a34 f536 85c7 d538 f75d 9139 9e0e 9237
000002c0: fe4b a237 72a2 a638 3e59 0438 129b 9439
000002d0: 0000 0000 f7a5 8e36 2b87 7b38 08c9 9e39
000002e0: 10dd 1639 0000 0000 83f3 9e38 0000 0000
000002f0: 946b bf3e 5d7d f338 24de c536 5eeb 0538
00000300: 2fd4 cd37 d37d 3638 1e94 4b3e 22d3 1639
00000310: be0b cb38 417a 2738 31d7 9738 5691 8b38
00000320: 1660 7839 a0a5 cc36 52c9 a537 38b3 153a
00000330: 572a 6537 1f2e 8037 c3a0 803c 71db f838
00000340: d077 4837 9e7f 3638 0000 0000 e8a3 7838
00000350: 9aa0 c838 4c6c 3b38 9160 a839 200a 8338
00000360: 2b7b 2238 0000 0000 772b b637 f2d6 ba38
00000370: 0000 0000 64dd 033e 0000 0000 8de0 1638
00000380: d10f a73e e197 9c38 7761 8b36 29df ff37
00000390: 9ac6 8137 c687 783f 652a 4f38 27c5 2638
000003a0: 501e 9f38 9413 f738 af05 043f f6e4 3138
000003b0: 283a b637 0000 0000 94cc a038 63fb 0b37
000003c0: 4dc7 8138 36aa 3c37 2a4d 1f37 e46b b738
000003d0: ecc2 cd38 b5ea 4439 33eb 6938 0fb6 8038
000003e0: c2b9 6338 7202 953d 44a9 9e38 c04c 9238
000003f0: 4270 8138 3a96 9b37 a402 b538 532c 9637

3.weight f4 [1, 384, 1, 1]
0.41122493 0.3135273 0.06836619 0.00039548567 0.037680026 0.99400604 0.00013578344 0.52871025
0.83393943 3.4797908e-05 0.00019971283 0.006739197 0.2665496 0.8493097 0.10161776 0.00013901395
0.3883421 0.3133741 5.436199e-06 0.6030343 0.5442008 0.00031576373 0.00026116485 3.566178e-05
0.12714054 0.5548454 0.090099454 0.35997856 8.8527755e-05 0.38351914 0.00016689883 0.057290927
9.176575e-05 0.10047799 0.20748253 0.59139544 0.00019037082 0.0612429 0.11463349 0.00028031616
0.83605784 0.8436328 0.40963003 0.0 0.113097146 0.100742824 0.59678465 0.28567943
0.14982417 0.19002628 8.6481254e-05 0.47057313 0.00024289392 0.00012633936 0.68042725 0.38821298
8.681429e-05 0.625376 0.42433926 0.46287435 0.45905474 0.00015432025 0.6969427 0.24909681
0.13128364 0.31406647 0.14060591 0.1737542 1.0413014 0.030959757 0.14468035 0.15807031
0.107307374 4.838604e-05 0.08554509 3.6286605e-05 0.20952837 0.0007070358 0.492866 0.2870217
0.0001941562 0.26155803 0.082923025 0.00012775716 5.366735e-05 6.40937e-05 0.27965117 0.73481065
0.064220436 0.066086665 4.6531746e-05 0.016794035 0.012569337 5.7547597e-05 0.32504663 1.8763712e-05
0.29335913 0.2324928 0.56324553 0.32377037 0.6500927 0.00017711973 0.53100306 0.23923074
0.83672184 0.02925055 1.0756698 0.26656437 9.4808674e-05 0.38678485 0.30945742 0.9234301
0.56141996 0.79619825 0.00023882354 0.03858149 0.6453388 0.06756185 0.00034011152 0.9973569
0.00045020165 0.00013508146 0.00025660452 0.47869736 0.6472915 0.2395023 0.24008349 0.7769632
0.024613474 0.1993123 0.15099774 0.27520308 0.00014451153 0.116283305 0.3638108 0.00017233613
5.8950176e-05 0.00014000891 5.2252904e-05 0.01900072 0.08970063 0.17169902 5.8588475e-06 0.00013599706
0.22301829 8.326439e-05 0.08132205 7.751469e-05 7.990203e-05 0.16667792 0.02586196 0.67423266
0.07109458 0.04233285 0.00014971159 0.3305186 0.79726297 0.36887535 0.4794127 0.08410207
0.8702485 0.2186 0.0 0.00032699373 9.795218e-06 0.00017867824 0.31271407 0.6883731
0.40572393 0.6626733 3.3149732e-05 0.75400233 0.3149662 0.059088707 0.09527553 0.10948821
0.7893164 6.4621618e-06 0.14485948 0.1315972 0.14398336 6.84445e-06 0.0001312419 0.7598293
0.02546139 1.6968734e-05 0.3906832 0.00022301114 0.36670044 0.090370595 0.00028425004 0.5264995
0.00012360445 0.5143796 0.15487786 0.37117663 0.27024668 0.2365736 5.30302e-05 6.362235e-05
0.00025419006 0.0002826722 2.1567716e-05 0.43973085 0.3536505 0.17843123 0.49499413 8.916792e-05
7.9382604e-05 2.9978968e-05 3.7177862e-05 0.4444037 0.0 0.03206696 0.00021122948 0.15877128
0.0001723903 3.5385452e-05 0.0 0.000120658064 0.029433664 0.0001673669 0.0001542083 0.5300753
0.25677782 0.00020616013 0.11347911 0.0006016594 0.15701249 0.22749044 0.00027203167 0.21842813
0.05459455 0.17273587 0.11301259 0.00011647907 0.0627513 0.2516134 0.087687686 0.00017306452
0.1151128 0.48135063 3.9226812e-05 0.0453669 0.22526316 0.038444012 0.068514176 0.017415116
0.02600992 0.0002958374 0.0 0.025418667 0.00012057645 5.5006116e-05 0.015159744 0.00024312627
00000000: 138c d23e a686 a03e 9303 8c3d 3059 cf39
00000010: 5f56 1a3d 2e77 7e3f 1761 0e39 8e59 073f
00000020: 0e7d 553f f8f3 1138 016a 5139 7bd4 dc3b
00000030: 3079 883e 5c6c 593f f91c d03d 46c4 1139
00000040: c7d4 c63e 9272 a03e 9868 b636 7560 1a3f
00000050: be50 0b3f 178d a539 f4ec 8839 8b93 1538
00000060: 2131 023e 590a 0e3f 1086 b83d 1c4f b83e
00000070: faa7 b938 9f5c c43e 9001 2f39 e4a9 6a3d
00000080: 5d72 c038 68c7 cd3d 4d76 543e b165 173f
00000090: 479e 4739 d6d9 7a3d f7c4 ea3d 66f7 9239
000000a0: e307 563f 52f8 573f 07bb d13e 0000 0000
000000b0: 7a9f e73d 4152 ce3d e1c6 183f 9344 923e
000000c0: 826b 193e 4096 423e 455d b538 f6ee f03e
000000d0: 57b1 7e39 f779 0439 7b30 2e3f dac3 c63e
000000e0: 1110 b638 a418 203f ff42 d93e defd ec3e
000000f0: 3909 eb3e 07d1 2139 d66a 323f 3c13 7f3e
00000100: 386f 063e 52cd a03e fffa 0f3e 9fec 313e
00000110: 5d49 853f 519f fd3c 1627 143e 2fdd 213e
00000120: f8c3 db3d 1df2 4a38 4432 af3d 7232 1838
00000130: 9b8e 563e 5f58 393a ef58 fc3e 82f4 923e
00000140: 6896 4b39 efea 853e 8cd3 a93d 8df6 0539
00000150: e118 6138 0b6a 8638 702e 8f3e 8d1c 3c3f
00000160: 0186 833d 7258 873d 152b 4338 a593 893c
00000170: 9fef 4d3c 435f 7138 836c a63e c466 9d37
00000180: 2b33 963e 9812 6e3e dc30 103f 3bc5 a53e
00000190: 7a6c 263f 37b9 3939 d1ef 073f e7f8 743e
000001a0: 6733 563f d99e ef3c 8caf 893f 207b 883e
000001b0: 05d4 c638 aa08 c63e 3471 9e3e ea65 6c3f
000001c0: 38b9 0f3f a6d3 4b3f b56c 7a39 a007 1e3d
000001d0: ec34 253f de5d 8a3d ff50 b239 c852 7f3f
000001e0: 0b09 ec39 a7a4 0d39 e088 8639 d217 f53e
000001f0: e5b4 253f 1740 753e 72d8 753e 0fe7 463f
00000200: 32a2 c93c 8618 4c3e 279f 1a3e 6be7 8c3e
00000210: 0588 1739 f125 ee3d 6945 ba3e 21b5 3439
00000220: 4541 7738 5bcf 1239 212a 5b38 66a7 9b3c
00000230: f7b4 b73d ded1 2f3e 1e97 c436 6f9a 0e39
00000240: e85e 643e 3b9e ae38 2d8c a63d 628f a238
00000250: 1391 a738 9ead 2a3e 76dc d33c 839a 2c3f
00000260: 099a 913d 3665 2d3d e6fb 1c39 bc39 a93e
00000270: 6d19 4c3f 3bdd bc3e 9575 f53e b53d ac3d
00000280: 9bc8 5e3f aed8 5f3e 0000 0000 5b70 ab39
00000290: 2456 2437 935b 3b39 0f1c a03e 3839 303f
000002a0: 0cbb cf3e f5a4 293f 410a 0b38 4c06 413f
000002b0: 4043 a13e 0007 723d d11f c33d 5b3b e03d
000002c0: a410 4a3f 8cd5 d836 0b56 143e 6bc1 063e
000002d0: 6070 133e 61a9 e536 fb9d 0939 2c84 423f
000002e0: 6894 d03c 1458 8e37 a107 c83e 19d8 6939
000002f0: 29c0 bb3e 3814 b93d 6507 9539 acc8 063f
00000300: d19b 0139 62ae 033f 4d98 1e3e dd0a be3e
00000310: c65d 8a3e 5a40 723e be6c 5e38 fd6c 8538
00000320: d044 8539 9f33 9439 51ec b437 6724 e13e
00000330: ae11 b53e adb6 363e df6f fd3e aaff ba38
00000340: 367a a638 587b fb37 6def 1b38 e288 e33e
00000350: 0000 0000 a558 033d 7b7d 5d39 f094 223e
00000360: abc3 3439 d76a 1438 0000 0000 ce09 fd38
00000370: de1e f13c 367f 2f39 fab2 2139 04b3 073f
00000380: 6278 833e b02c 5839 bc67 e83d aeb8 1d3a
00000390: e2c7 203e 41f3 683e 799f 8e39 a0ab 5f3e
000003a0: 899e 5f3d ace1 303e 2573 e73d 3946 f438
000003b0: c183 803d 79d3 803e 9a95 b33d a778 3539
000003c0: 42c0 eb3d 9773 f63e 7887 2438 a4d2 393d
000003d0: 63ab 663e 7877 1d3d 2951 8c3d 25aa 8e3c
000003e0: c112 d53c a01a 9b39 0000 0000 cf3a d03c
000003f0: fddd fc38 5eb6 6638 9360 783c b6ef 7e39

4.weight f4 [1, 384, 1, 1]
0.36276525 0.00011991175 5.494526e-06 9.9010904e-05 0.43492955 0.00011859242 0.30353492 5.3997257e-05
0.032794084 0.00015737218 0.0 0.0 0.3545894 8.166468e-05 0.0072287517 5.573377e-05
0.00018763535 0.5249563 0.13523702 0.06922704 0.2380962 0.18565777 6.423462e-05 0.00015211325
0.0002671793 0.00015822357 0.00012679248 0.012966843 2.6005539e-05 0.00027327402 0.16499071 0.29488125
0.10300821 0.27863327 0.00016848183 0.4966538 0.2865404 0.025664035 0.019942816 0.32101247
0.0002485244 0.3703271 0.00014368592 0.001351866 0.7441981 0.15234652 0.16177459 0.15230335
4.6113393e-05 7.2376686e-05 0.29976624 0.00033755452 0.45661116 0.06365714 0.00029464965 5.9361802e-05
0.48243272 6.1125036e-05 0.265578 0.0012268417 0.6671888 0.00010364461 0.00013280318 0.23662712
8.822908e-05 0.0 4.391569e-05 0.00010714888 0.19781885 0.057283625 0.03765165 0.016504297
0.09682547 8.6344946e-05 0.54862076 0.22909276 0.00019071813 0.0005542134 0.0002626528 0.18343875
0.00015751731 0.13812934 9.422918e-05 0.19379674 0.36898163 0.00011374028 0.00011172297 0.016061215
0.02277821 0.025972864 0.117041856 3.0834703e-06 7.4271426e-05 0.00010100915 0.25446656 0.00044291702
0.0002005301 0.68066174 0.47087312 0.12436147 9.628857e-05 0.0006028303 0.7764476 5.77208e-05
0.069332 7.239047e-05 0.45747828 0.15129957 0.047241673 0.00013553785 0.071109585 0.00012417126
0.21443073 0.27985102 0.00021155848 0.037020173 0.29530397 0.00012883039 0.16746382 0.4352463
5.6942034e-05 0.03741882 4.5182216e-05 0.18285252 0.037538927 0.4681549 0.00015352634 0.00048299282
0.0005007548 0.19821084 0.16656794 0.6209775 0.00024966872 0.16502997 0.08349639 4.2890522e-05
0.0003647113 0.102843314 0.00010251438 0.026175179 0.00011043789 0.29345322 0.1589486 0.2741261
0.058032975 0.070690535 0.06265243 7.5349846e-05 0.14720787 0.29838675 0.03106232 0.00014768759
0.10387968 0.2585525 0.7523244 0.00035661907 0.3934034 0.00019402927 0.08680077 0.052398685
0.7062396 0.45319092 0.111348666 0.00033318065 7.982269e-05 0.106880344 2.1615888e-05 0.00038434655
0.6297948 5.8467444e-06 0.22990629 0.047388654 6.00494e-05 0.09235712 0.00029658864 0.13862438
0.24826394 0.14381228 0.0 0.00023879293 0.4100053 0.029828042 0.4737477 0.28257826
0.00020516873 0.53373253 0.21762419 0.00042958642 7.145645e-05 0.00016429838 0.32751063 0.17728277
0.022689726 0.0005895522 0.25722742 0.000115734016 3.69494e-06 0.00020388674 0.00036864702 8.89018e-05
2.6701398e-05 0.00015133906 0.0003945533 0.11662062 0.0 0.0 0.00033278175 0.721029
0.17287089 0.33633956 0.00015527193 0.00022392103 0.14892769 0.13804817 0.0002673857 0.00019633143
0.042252224 2.8581762e-05 5.3850992e-05 0.0002902527 5.977818e-05 0.00012735266 3.5754238e-05 1.3948213e-05
1.7516018e-05 4.69088e-06 0.00015493631 3.2422107e-05 0.00027278886 5.4852753e-05 0.05361691 0.00029208895
3.9283535e-05 0.06906881 0.0002722548 0.00012914 0.12692045 0.0 0.06598726 0.00016984354
0.0001727589 0.0 0.4147985 4.6196423e-05 0.00019877397 0.2269351 0.116462715 2.5413345e-05
0.17013124 0.9380159 6.997556e-05 4.138943e-05 0.03601239 6.294605e-05 0.0 0.13867809
00000000: 5ebc b93e 2179 fb38 9e5d b836 13a4 cf38
00000010: 16af de3e d2b4 f838 ee68 9b3e 1d7b 6238
00000020: 1753 063d 4604 2539 0000 0000 0000 0000
00000030: be8c b53e 6443 ab38 2adf ec3b aec3 6938
00000040: fbbf 4439 8963 063f 937b 0a3e e8c6 8d3d
00000050: 7ecf 733e 121d 3e3e b3b5 8638 9780 1f39
00000060: 3314 8c39 d1e8 2539 99f3 0439 e272 543c
00000070: 7826 da37 3846 8f39 53f3 283e adfa 963e
00000080: f8f5 d23d 05a9 8e3e 7faa 3039 6849 fe3e
00000090: 6cb5 923e 623d d23c 1e5f a33c bf5b a43e
000000a0: 614c 8239 839b bd3e 65aa 1639 1931 b13a
000000b0: c483 3e3f ba00 1c3e 3da8 253e 69f5 1b3e
000000c0: e169 4138 f0c8 9738 f67a 993e cdf9 b039
000000d0: f0c8 e93e ad5e 823d 357b 9a39 40fb 7838
000000e0: 6c01 f73e 4130 8038 d7f9 873e facd a03a
000000f0: e3cc 2a3f c75b d938 1541 0b39 614e 723e
00000100: a007 b938 0000 0000 1d32 3838 1eb5 e038
00000110: 0691 4a3e 3ca2 6a3d 9e38 1a3d 0534 873c
00000120: 6f4c c63d 1714 b538 6972 0c3f 4b97 6a3e
00000130: 82fb 4739 a248 113a a9b4 8939 5ed7 3b3e
00000140: 3b2b 2539 c771 0d3e e89c c538 a772 463e
00000150: 29eb bc3e d987 ee38 d04c ea38 cf92 833c
00000160: 5e99 ba3c 0bc5 d43c a4b3 ef3d 9eed 4e36
00000170: 2bc2 9b38 e0d4 d338 7149 823e 5137 e839
00000180: 6445 5239 d93f 2e3f 4816 f13e 3ab1 fe3d
00000190: 88ee c938 4207 1e3a 45c5 463f 3d19 7238
000001a0: f0fd 8d3d 56d0 9738 983a ea3e 46ee 1a3e
000001b0: 7c80 413d 2a1f 0e39 e7a1 913d f833 0239
000001c0: bb93 5b3e a248 8f3e ccd5 5d39 77a2 173d
000001d0: 1532 973e a516 0739 a37b 2b3e 9ad8 de3e
000001e0: 0bd5 6e38 7a44 193d 0982 3d38 b13d 3b3e
000001f0: 6bc2 193d 00b2 ef3e eafb 2039 333a fd39
00000200: 1645 033a c8f7 4a3e c990 2a3e 62f8 1e3f
00000210: f8e5 8239 9efd 283e 2800 ab3d 59e5 3338
00000220: b936 bf39 849f d23d fdfc d638 546d d63c
00000230: e49a e738 803f 963e 6cc3 223e 425a 8c3e
00000240: fcb3 6d3d 33c6 903d eb4f 803d 2405 9e38
00000250: a9bd 163e 26c6 983e 6876 fe3c 96dc 1a39
00000260: dfbe d43d fe60 843e 5598 403f 9af8 ba39
00000270: 2c6c c93e 5674 4b39 9ac4 b13d 01a0 563d
00000280: 1ecc 343f a408 e83e c50a e43d c0ae ae39
00000290: 7b66 a738 15e4 da3d c453 b537 1f82 c939
000002a0: 3b3a 213f 272f c436 8e6c 6b3e 9b1a 423d
000002b0: 8ddd 7b38 bb25 bd3d 747f 9b39 8df3 0d3e
000002c0: e738 7e3e 8743 133e 0000 0000 7d64 7a39
000002d0: 37ec d13e f059 f43c 0f8f f23e 19ae 903e
000002e0: 9022 5739 b2a2 083f e0d8 5e3e 1d3a e139
000002f0: e4da 9538 8347 2c39 79af a73e 9d89 353e
00000300: cedf b93c 2e8c 1a3a 50b3 833e 3ab6 f238
00000310: 96f6 7736 6eca 5539 f746 c139 ca70 ba38
00000320: d1fc df37 c5b0 1e39 0cdc ce39 cbd6 ee3d
00000330: 0000 0000 0000 0000 3679 ae39 5b95 383f
00000340: 1105 313e b334 ac3e 7ed0 2239 58cc 6a39
00000350: 8080 183e 805c 0d3e e72f 8c39 51de 4d39
00000360: ab10 2d3d dec2 ef37 10de 6138 0f2d 9839
00000370: 55ba 7a38 f889 0539 d2f6 1538 1e03 6a37
00000380: 5def 9237 5a66 9d36 6676 2239 f9fc 0738
00000390: 1a05 8f39 b211 6638 689d 5b3d 8423 9939
000003a0: 60c4 2438 f373 8d3d 6cbd 8e39 c169 0739
000003b0: 6ff7 013e 0000 0000 5424 873d 0718 3239
000003c0: 9d26 3539 0000 0000 7860 d43e 08c3 4138
000003d0: fb6d 5039 ad61 683e 0184 ee3d be2e d537
000003e0: e236 2e3e cf21 703f d8bf 9238 9099 2d38
000003f0: ba81 133d e701 8438 0000 0000 a101 0e3e

5.weight f4 [1, 512, 1, 1]
7.186965e-05 0.17610918 8.178055e-06 0.0008785876 0.058199435 0.05452879 0.00025459644 0.00030142316
5.0860344e-05 3.0350535e-07 0.0 0.0 0.072118 0.10309928 0.0 0.00010478461
0.03812674 0.0066618808 0.121889204 7.799706e-05 0.009804384 5.05324e-05 0.027711153 0.26191735
0.208408 0.00034620686 0.19617286 0.20572849 0.00032925126 0.0030316582 0.008604764 0.06672765
0.08490028 0.18508318 0.25713217 0.0002041494 0.0002946044 8.4697145e-05 0.05464029 0.0148860505
0.00011610164 1.9810817e-05 0.00016705433 0.000100175705 0.16797952 0.098144144 6.8407844e-06 0.047601864
0.0 0.0006398623 7.99148e-05 0.00045652947 4.0434585e-05 0.00019972565 0.2034675 0.07177319
6.511405e-05 0.00045844694 7.4176634e-05 1.8921666e-05 0.06977245 0.12768935 0.0011779441 0.00012226583
0.16216904 0.0909388 5.659677e-05 5.4310523e-05 0.0006383428 0.0005776766 0.17657638 5.6099976e-05
0.16502549 9.611742e-06 0.0004280168 0.00072098034 0.00010726576 0.00037767133 0.059645586 5.2991665e-05
3.9069746e-06 0.044668816 8.1037506e-05 0.19386694 0.00010405509 0.06821109 0.08871578 1.1933022e-05
0.053665668 9.915385e-05 0.00022796048 0.05063064 0.0 0.0001217421 0.064528905 0.10842631
0.0003066527 0.33494037 0.05224217 4.465893e-06 0.00010574105 2.9244624e-05 0.09946727 0.0001277334
0.0 0.00016001474 0.2011771 0.0073380815 0.00037828748 0.00028555488 0.00041434637 0.00037978403
0.28489143 0.08798289 0.000110924455 0.12752135 0.02460252 5.732177e-05 6.706328e-05 0.3253524
0.12541346 0.044069298 1.1529965e-05 0.12368648 9.761078e-05 9.5768744e-05 0.25903177 8.73323e-05
0.00022099433 0.0 0.15692286 1.8173389e-05 3.393215e-05 7.797297e-05 0.11040617 0.008040628
0.17764173 0.0002526603 0.00028785047 4.3423468e-05 0.12516078 0.0002151256 5.516423e-05 0.0007379872
0.14887246 0.02104365 0.00014641689 0.00016190593 0.06624328 0.095677234 0.20622751 6.606721e-05
0.2601593 0.09968803 0.00045245374 0.05284735 1.6262855e-05 0.08791184 0.0001818611 0.01796084
0.00014165607 0.00018502292 0.07840518 0.41136977 0.00017705964 0.39788952 0.00012298305 0.0
0.20512675 0.012286476 8.324458e-05 0.21618547 3.7191243e-05 0.00036668318 0.041142724 0.16314921
0.0 0.076673165 0.3732671 0.00046695195 0.22100596 0.0004717779 0.023696326 0.00017169572
4.5862973e-05 0.00036075615 0.00012507726 0.09073571 0.14852186 0.0 0.37292966 0.035111953
0.08782885 0.0069691623 0.23571917 0.00014248163 0.052433576 0.00035848742 0.32764235 6.2273655e-05
0.12458791 1.9175302e-05 0.00020478622 0.13911398 0.0005075212 0.00017438715 0.12928735 0.0
0.07515684 4.291437e-05 0.0003250117 4.863291e-05 0.070186414 0.038937524 7.011959e-05 0.14395031
0.0004940318 4.5906127e-05 0.00019905438 0.18928243 0.00017136704 0.07883287 0.09768261 9.950059e-06
0.010083192 0.0 0.0 8.942861e-05 0.0007771551 6.0569357e-05 0.00015848549 0.00023956002
0.00017787356 9.090615e-05 3.269233e-05 0.024867054 6.535458e-05 0.20785087 3.809064e-05 1.8589475e-05
0.00013891321 0.000113702554 0.35725284 0.15806815 0.00012603813 0.31914777 0.0024502247 4.5698187e-05
0.0 0.00035240225 0.11014121 0.07307432 0.00031787207 0.081248745 0.06309902 0.00012503868
00000000: b9b8 9638 f755 343e 7b34 0937 0451 663a
00000010: 8862 6e3d 9559 5f3d 5b7b 8539 5508 9e39
00000020: e152 5538 75f1 a234 0000 0000 0000 0000
00000030: 9ab2 933d b725 d33d 0000 0000 cfbf db38
00000040: c92a 1c3d e84b da3b 0ca1 f93d 5a92 a338
00000050: 91a2 203c c0f2 5338 8002 e33c 081a 863e
00000060: e868 553e 1983 b539 8ae1 483e 7daa 523e
00000070: 5b9f ac39 c9ae 463b fffa 0c3c 82a8 883d
00000080: 33e0 ad3d 7286 3d3e d4a6 833e f010 5639
00000090: 2275 9a39 6f9f b138 7fce 5f3d 9fe4 733c
000000a0: 987b f338 682f a637 4e2b 2f39 6c15 d238
000000b0: d302 2c3e ccff c83d e489 e536 2cfa 423d
000000c0: 0000 0000 6fbc 273a ee97 a738 595a ef39
000000d0: 4e98 2938 726d 5139 c959 503e d2fd 923d
000000e0: d78d 8838 b55b f039 478f 9b38 f8b9 9e37
000000f0: dce4 8e3d ffc0 023e 3f65 9a3a 7c34 0039
00000100: a40f 263e 1f3e ba3d 5262 6d38 7bcb 6338
00000110: 7656 273a 386f 173a 70d0 343e e44c 6b38
00000120: 71fc 283e 1e42 2137 7167 e039 2c00 3d3a
00000130: def3 e038 3002 c639 ee4e 743d 5e43 5e38
00000140: a818 8336 a6f6 363d aef2 a938 0e85 463e
00000150: 2738 da38 42b2 8b3d 9eb0 b53d f033 4837
00000160: 88d0 5b3d d1f0 cf38 ad08 6f39 1362 4f3d
00000170: 0000 0000 cb4f ff38 bb27 843d 9d0e de3d
00000180: 3bc6 a039 4e7d ab3e e3fb 553d bbd9 9536
00000190: 4bc1 dd38 5a52 f537 7fb5 cb3d 2cf0 0539
000001a0: 0000 0000 a1c9 2739 5f01 4e3e 4a74 f03b
000001b0: e354 c639 87b6 9539 a13c d939 c01d c739
000001c0: 4add 913e 6030 b43d 1da0 e838 f594 023e
000001d0: 398b c93c c86c 7038 53a4 8c38 9794 a63e
000001e0: 636c 003e 0282 343d d370 4137 564f fd3d
000001f0: 63b4 cc38 74d7 c838 d09f 843e 2c26 b738
00000200: b7ba 6739 0000 0000 63b0 203e 0e73 9837
00000210: 5e52 0e38 6b85 a338 a11c e23d d7bc 033c
00000220: b7e7 353e 7e77 8439 a3ea 9639 9821 3638
00000230: 262a 003e 5793 6139 2460 6738 7c75 413a
00000240: 0672 183e bc63 ac3c 7c87 1939 4bc5 2939
00000250: 8faa 873d 6df2 c33d 4e2d 533e 908d 8a38
00000260: 9a33 853e 3d29 cc3d 5037 ed39 7676 583d
00000270: 376c 8837 1f0b b43d f8b1 3e39 9d22 933c
00000280: 8389 1439 b602 4239 e592 a03d 0f9f d23e
00000290: 16a9 3939 2db8 cb3e 03f5 0039 0000 0000
000002a0: bf0c 523e 374d 493c 9893 ae38 b95f 5d3e
000002b0: cbfd 1b38 623f c039 4685 283d 9610 273e
000002c0: 0000 0000 d206 9d3d de1c bf3e 3bd1 f439
000002d0: 634f 623e f558 f739 cc1e c23c 3809 3439
000002e0: fe5c 4038 df23 bd39 2c27 0339 a5d3 b93d
000002f0: 1d16 183e 0000 0000 a3f0 be3e 8dd1 0f3d
00000300: 9ddf b33d 925d e43b 5e60 713e 1f67 1539
00000310: 97c4 563d 5ef3 bb39 bdc0 a73e ea98 8238
00000320: f227 ff3d a6da a037 e2bb 5639 e573 0e3e
00000330: 2c0b 053a b2db 3639 e763 043e 0000 0000
00000340: d4eb 993d f4fe 3338 5566 aa39 31fb 4b38
00000350: e5bd 8f3d f47c 1f3d 2b0d 9338 b667 133e
00000360: ea81 013a 548b 4038 41b9 5039 41d3 413e
00000370: fdb0 3339 2173 a13d d20d c83d 2eef 2637
00000380: f933 253c 0000 0000 0000 0000 9f8b bb38
00000390: ffb9 4b3a da0b 7e38 202f 2639 6732 7b39
000003a0: 9283 3a39 dea4 be38 1f1f 0938 feb5 cb3c
000003b0: f90e 8938 dcd6 543e 83c3 1f38 98f0 9b37
000003c0: 3ba9 1139 9873 ee38 d8e9 b63e 9edc 213e
000003d0: 1a29 0439 5667 a33e f393 203b 0eac 3f38
000003e0: 0000 0000 a1c2 b839 b791 e13d fda7 953d
000003f0: 11a8 a639 be65 a63d 0f3a 813d d11c 0339

6.weight f4 [1, 512, 1, 1]
0.037923098 0.00014596434 0.072108865 0.00013792151 0.00027133245 0.00050145097 0.0007462279 0.0
0.007551023 3.2402942e-05 0.0035001806 5.008705e-05 0.07531945 0.0008153039 0.0002129267 0.16924222
2.7314674e-05 8.955543e-05 0.045556504 0.023911783 0.057723172 0.15890607 0.19371013 0.00056317827
3.4059824e-05 0.041426476 8.608352e-06 9.009086e-05 0.057297442 0.075172506 0.06520393 0.04581293
4.4957247e-05 0.23678112 0.14962327 0.0002210083 0.04412904 0.0041414537 0.00014392947 0.0074342447
0.06253506 9.1728485e-05 0.019399531 0.1363832 0.03453821 0.10684014 0.0800565 0.03888938
0.18890485 0.013037267 0.0003633145 0.00040046612 0.15529388 8.158874e-05 0.034605913 0.16471477
0.00028447987 0.00012193669 0.00028848412 0.053447906 1.1241935e-05 0.00032428536 0.00015507027 0.052458845
0.18144429 0.06685928 0.12663487 0.00025090892 0.024026426 0.00011279184 0.107334696 0.00019443227
0.022852208 0.005180671 0.05674251 0.00032998133 4.031827e-06 0.00026945703 0.08429127 0.00014396063
0.0030316648 9.62437e-09 0.0001646814 0.091617726 0.0 0.005761546 0.00022616754 6.192254e-05
0.00080334884 0.01746555 0.002457236 0.09082591 0.0937746 0.07235585 0.00045243264 0.08531045
0.00012109782 0.07464633 0.008262641 0.04368387 1.1836552e-05 0.021830438 0.00032180964 0.2180888
0.0059449063 0.025366548 0.080113135 0.033423353 0.00048509828 0.03586411 0.17167811 0.051233154
0.0011246627 4.276988e-05 3.0443205e-05 0.00043914822 0.038875055 0.029767742 0.000620508 0.00033338886
0.0008833821 0.00011212091 0.018244136 0.00010760693 5.6485806e-05 0.03686876 0.02998851 3.8436934e-05
4.625525e-05 0.012294124 0.018530173 0.05453455 0.13075769 0.099510044 0.024112387 0.0002104037
0.00025431986 0.0003293203 0.001395197 0.00013065862 0.0 0.0005501928 0.0012929456 0.0036784713
4.0639803e-05 0.026510298 0.00047598337 0.025588272 1.4108365e-05 6.0688235e-05 1.2175309e-05 0.00046146038
0.00014864208 0.06057232 0.00017783591 0.020997856 0.034078866 0.017113606 0.0004751597 0.10381977
0.08571034 0.13590999 0.00012038421 0.040528428 0.00013945272 0.014201396 0.0003524703 0.039769042
1.9941546e-05 0.028823731 0.0006160461 0.00016291832 0.022638364 0.0001663385 0.026662316 0.037036788
0.030000225 0.00013656086 0.00052300614 3.131986e-05 0.04570119 0.10560334 0.00016510331 0.00081376947
0.00035011893 3.3558284e-05 0.0 0.00036190514 0.037044 0.04148246 0.00022416249 4.421624e-05
0.043301098 0.010871667 0.000996352 0.049261905 0.032633025 0.005546611 0.06856581 0.0011342777
2.5518455e-05 0.20090963 1.5644931e-05 0.00043282926 0.00052706007 0.06608645 0.00017997356 0.0002595843
6.817417e-05 0.00015539963 0.0010617407 0.050073624 0.00042509293 1.2167312e-06 0.07180722 4.213189e-05
0.0002429884 0.041590426 0.07537158 0.0005330045 0.0 0.08572305 0.03890701 5.5237342e-05
0.00052754744 0.00027199552 0.00027652885 0.016883593 0.043898955 0.06969667 0.1732298 0.005130089
0.00029002075 0.00022950536 1.0579138e-05 0.00025373333 0.0013484614 0.15454012 0.07326347 0.00013709527
0.09445258 0.05920576 0.00013781888 0.0 0.045984652 0.010302352 0.00046926903 0.00052028877
0.095886216 0.064828046 0.12224039 0.00045618863 0.03855628 0.06652825 9.444187e-05 0.0
00000000: 4055 1b3d 010e 1939 d0ad 933d 069f 1039
00000010: a041 8e39 ce73 033a 829e 433a 0000 0000
00000020: 926e f73b 65e8 0738 4963 653b 8f14 5238
00000030: 1541 9a3d 1eba 553a 1345 5f39 d54d 2d3e
00000040: d121 e537 b5cf bb38 7599 3a3d a5e2 c33c
00000050: 226f 6c3d 46b8 223e f35b 463e 41a2 133a
00000060: 75db 0e38 cfae 293d 976c 1037 2aef bc38
00000070: b9b0 6a3d 0bf4 993d a389 853d 57a6 3b3d
00000080: 7a90 3c38 c076 723e d836 193e 77be 6739
00000090: a7c0 343d 08b5 873b c6eb 1639 f79a f33b
000000a0: 6212 803d 5b5e c038 c4eb 9e3c 0aa8 0b3e
000000b0: f077 0d3d 01cf da3d aaf4 a33d 784a 1f3d
000000c0: 4670 413e 439a 553c 3f7b be39 a7f5 d139
000000d0: 5c05 1f3e 9f1a ab38 eebe 0d3d fdaa 283e
000000e0: 3e26 9539 43b8 ff38 af3f 9739 31ec 5a3d
000000f0: be9b 3c37 d804 aa39 5c9a 2239 16df 563d
00000100: 88cc 393e 85ed 883d 92ac 013e 6d8c 8339
00000110: 11d3 c43c a88a ec38 4bd2 db3d 84e0 4b39
00000120: 8e34 bb3c 9ec2 a93b d66a 683d 5801 ad39
00000130: 2149 8736 e945 8d39 e7a0 ac3d 23f4 1639
00000140: e5ae 463b 6d58 2532 54ae 2c39 13a2 bb3d
00000150: 0000 0000 5acb bc3b 6327 6d39 69dc 8138
00000160: d497 523a ea13 8f3c 9409 213b ef02 ba3d
00000170: e60c c03d 4e2f 943d 7b34 ed39 3fb7 ae3d
00000180: e6f5 fd38 2de0 983d 0760 073c dced 323d
00000190: 9b95 4637 bfd5 b23c 8fb8 a839 ac52 5f3e
000001a0: 7dcd c23b 82cd cf3c 5b12 a43d ede6 083d
000001b0: ca54 fe39 3fe6 123d 63cc 2f3e dbd9 513d
000001c0: 6b69 933a cf63 3338 4960 ff37 7a3d e639
000001d0: 733b 1f3d 7bdb f33c 96a9 223a b2ca ae39
000001e0: c592 673a 7522 eb38 ba74 953c 08ab e138
000001f0: 2ceb 6c38 b203 173d 77aa f53c 5837 2138
00000200: 3202 4238 4b6d 493c 97cc 973c 9f5f 5f3d
00000210: 58e5 053e eccb cb3d 5787 c53c d09f 5c39
00000220: 3c56 8539 9fa8 ac39 0bdf b63a 6801 0939
00000230: 0000 0000 d03a 103a 0e78 a93a 8212 713b
00000240: a874 2a38 202c d93c 688d f939 7f9e d13c
00000250: f7b2 6c37 7f8b 7e38 8e44 4c37 2af0 f139
00000260: cedc 1b39 ae1a 783d 7779 3a39 b203 ac3c
00000270: 4896 0b3d d531 8c3c db1e f939 769f d43d
00000280: e788 af3d fd2b 0b3e c876 fc38 2301 263d
00000290: 0e3a 1239 f9ac 683c c3cb b839 dde4 223d
000002a0: 2548 a737 bf1f ec3c 277e 213a 0ed5 2a39
000002b0: 1774 b93c 276b 2e39 ee6a da3c e3b3 173d
000002c0: 08c3 f53c c731 0f39 591a 093a 725d 0338
000002d0: 2c31 3b3d 9046 d83d 951f 2d39 2553 553a
000002e0: 2b90 b739 efc0 0c38 0000 0000 16be bd39
000002f0: 73bb 173d 83e9 293d 290d 6b39 d474 3938
00000300: 7e5c 313d 141f 323c 0798 823a dac6 493d
00000310: 35aa 053d 58c0 b53b 3b6c 8c3d 0bac 943a
00000320: 7710 d637 41bb 4d3e 3c3d 8337 5ced e239
00000330: 672a 0a3a 5558 873d 49b7 3c39 d118 8839
00000340: bbf8 8e38 c5f2 2239 1b2a 8b3a 001a 4d3d
00000350: 02df de39 914e a335 aa0f 933d c6b6 3038
00000360: b4ca 7e39 b95a 2a3d 6a5c 9a3d 54b9 0b3a
00000370: 0000 0000 918f af3d f55c 1f3d a5ae 6738
00000380: 1c4b 0a3a 9f9a 8e39 13fb 9039 764f 8a3c
00000390: 64cf 333d 21bd 8e3d 2763 313e 4e1a a83b
000003a0: ed0d 9839 60a7 7039 0d7d 3137 8307 8539
000003b0: dbbe b03a c43f 1e3e 280b 963d 3bc1 0f39
000003c0: 5b70 c13d bd81 723d 7983 1039 0000 0000
000003d0: 675a 3c3d 32cb 283c 3908 f639 fd63 083a
000003e0: fe5f c43d 91c4 843d 2b59 fa3d 9a2c ef39
000003f0: 31ed 1d3d f73f 883d 180f c638 0000 0000
